checkpoint/social-stgcnn-china-with-normalization/val_best.pth (torch_old, 36942 bytes, 30 tensors)

st_gcns.0.gcn.conv.weight f4 [5, 3, 1, 1]
0	0x3e6451d9	0.22296847
1	0x3d4b35aa	0.049611725
2	0xbde063f7	-0.10956567
3	0x3ec1b74f	0.37835166
4	0x3e631aae	0.22178146
5	0xbec70c97	-0.38876793
6	0x3f055dcd	0.52096254
7	0xbe10a3af	-0.1412494
8	0xbdcb1fc9	-0.09918172
9	0xbf04f04b	-0.5192916
10	0xbec4e65a	-0.38456994
11	0x3ef481c6	0.4775526
12	0xbe009ee5	-0.12560613
13	0x3e6c7d84	0.23094755
14	0xbda271b5	-0.07931844

st_gcns.0.gcn.conv.bias f4 [5]
0	0x3e8b5612	0.27214104
1	0xbe83fad1	-0.25777295
2	0x3ea8cd21	0.32969
3	0x3ea6db6f	0.3258929
4	0xbe043ddb	-0.12914221

st_gcns.0.tcn.0.weight f4 [5]
0	0x3f675bbf	0.9037437
1	0x3f4448b5	0.7667344
2	0x3f5ee607	0.87069744
3	0x3f5c6ad1	0.8610049
4	0x3f6c5624	0.9231894

st_gcns.0.tcn.0.bias f4 [5]
0	0x3e2f80ef	0.17139028
1	0x3f6835e5	0.90707237
2	0x3ddef32b	0.10886224
3	0x3f2d04f7	0.675857
4	0x3c827b3e	0.015927907

st_gcns.0.tcn.0.running_mean f4 [5]
0	0x3b3f25e7	0.0029166879
1	0xbb38757f	-0.0028146205
2	0x3b675f29	0.0035304523
3	0x3b68daed	0.003553088
4	0xbab67fcc	-0.0013923584

st_gcns.0.tcn.0.running_var f4 [5]
0	0x3a7cb5ae	0.00096401095
1	0x3a81a568	0.0009891214
2	0x3ab8b387	0.0014091589
3	0x3acd5c4c	0.0015667765
4	0x3969e6e1	0.0002230662

st_gcns.0.tcn.2.weight f4 [5, 5, 3, 1]
0	0x3d890125	0.066896714
1	0x3e33b101	0.1754799
2	0x3c0ba77a	0.008523816
3	0x3ec9d1bc	0.39417827
4	0xbde6a913	-0.11262717
5	0x3e29f8e1	0.16598846
6	0xbe55ac89	-0.20866598
7	0x3e985bae	0.29757446
8	0x3dfb819a	0.12280579
9	0x3cc931d8	0.0245599
10	0x3ce71cde	0.028212007
11	0x3d34b4d3	0.04411776
12	0x3e196deb	0.14983337
13	0x3daec943	0.085344814
14	0xbe0dfc00	-0.13865662
15	0x3bfc9cdb	0.0077091283
16	0x3d9981be	0.074954495
17	0x3da9137b	0.08255669
18	0x3d00caf6	0.03144356
19	0x3da407ec	0.080093235
20	0xbefa3fee	-0.488769
21	0xbd070c6f	-0.032970842
22	0x3c8d747f	0.017267464
23	0xbe44e3de	-0.1922755
24	0xbb4ca0f3	-0.0031223863
25	0x3d3dd764	0.04634799
26	0xbeafe763	-0.34356222
27	0xbdb8455a	-0.08997603
28	0x3d03f1fb	0.032213192
29	0x3d50a9af	0.050943073
30	0x3cceaec4	0.02522982
31	0xbe2ee4c4	-0.17079455
32	0xbd939c92	-0.07207598
33	0xbdcb6ef9	-0.09933276
34	0x3dfbdf69	0.122984715
35	0xbf281a2b	-0.6566493
36	0xbd9fa4d9	-0.07795114
37	0x3e1fda5b	0.1561064
38	0x3d62d8f5	0.055382688
39	0xbe1cac12	-0.15300015
40	0x3dfa41fc	0.12219617
41	0xbf1eb2a8	-0.6199136
42	0xbdbd7358	-0.09250516
43	0xbd3877dd	-0.045036186
44	0xbdc5ff7e	-0.09667872
45	0x3e4c150b	0.19929902
46	0x3d2e5021	0.042556886
47	0xbb8c13be	-0.0042748144
48	0x3e2f38b4	0.17111474
49	0x3dc83b23	0.097769044
50	0xbe73c726	-0.23806438
51	0x3e83652b	0.25663123
52	0x3e6177e5	0.22018392
53	0xbdfa6aa0	-0.12227368
54	0xbe3bec68	-0.183519
55	0x3e392e32	0.18084028
56	0xbbf7d2c5	-0.0075629675
57	0xbe1559a3	-0.14584975
58	0x3e01b3e7	0.12666284
59	0xbe9fff11	-0.31249288
60	0xbe8566be	-0.2605495
61	0xbe8febc5	-0.28109565
62	0x3d26b4d4	0.040699795
63	0x3e835cfb	0.25656876
64	0xbe16c09b	-0.1472191
65	0x3d340a87	0.043955352
66	0xbd2aa6fe	-0.041663162
67	0xbbd8fe45	-0.006622108
68	0xbcfbb931	-0.030727955
69	0x3d859aa1	0.06523634
70	0x3e723cca	0.23656002
71	0x3ca5700c	0.02019503
72	0x3e576c97	0.21037517
73	0x3e75a9c8	0.23990548
74	0x3e1caeab	0.15301006

st_gcns.0.tcn.2.bias f4 [5]
0	0x3d5caa9f	0.053873654
1	0x3e6def31	0.23235776
2	0x3e75581e	0.23959395
3	0xbe5a20e9	-0.21301617
4	0xbc43a833	-0.011941957

st_gcns.0.tcn.3.weight f4 [5]
0	0x3f159bf2	0.5844108
1	0x3f75aa3d	0.9596289
2	0x3ed73400	0.4203186
3	0x3ef3ec29	0.47641113
4	0x3f0ceeb8	0.55051756

st_gcns.0.tcn.3.bias f4 [5]
0	0xbe99ebce	-0.30062717
1	0xbcb85540	-0.022501588
2	0x3b641706	0.0034803762
3	0xbe2659cf	-0.16245197
4	0xbeac2405	-0.3362123

st_gcns.0.tcn.3.running_mean f4 [5]
0	0x3f20f14b	0.62868184
1	0xbe834910	-0.2564168
2	0xbf3fb7ff	-0.7489013
3	0xbd95a077	-0.07305997
4	0x3e8b4f26	0.27208823

st_gcns.0.tcn.3.running_var f4 [5]
0	0x3e1874f9	0.14888372
1	0x3d88691d	0.06660674
2	0x3e17533e	0.14777848
3	0x3e22bf21	0.15893222
4	0x3e06935a	0.13142148

st_gcns.0.residual.0.weight f4 [5, 3, 1, 1]
0	0xbefd43af	-0.494657
1	0x3ba0b8c9	0.0049048406
2	0x3d886a58	0.066609085
3	0x3e522324	0.20521218
4	0xbda68765	-0.08131293
5	0xba272cf2	-0.0006377242
6	0xbdaec43d	-0.08533523
7	0x3d7300e7	0.059327032
8	0xbb46ede4	-0.0030354196
9	0x3e425be8	0.18980372
10	0x3d6a5ddc	0.057218418
11	0xbbf18ef2	-0.0073717767
12	0xbe9a5ec3	-0.30150422
13	0x3ec24b81	0.3794823
14	0x3e19d88d	0.15024014

st_gcns.0.residual.0.bias f4 [5]
0	0xbf0d1e9c	-0.5512483
1	0x3e6d8aff	0.23197554
2	0x3c48a3e2	0.012246104
3	0x3ed79451	0.42105344
4	0x3ed3baff	0.41353604

st_gcns.0.residual.1.weight f4 [5]
0	0x3f5e8feb	0.8693835
1	0x3f609f1d	0.8774279
2	0x3f47609d	0.77881795
3	0x3f6c02f8	0.9219203
4	0x3f2887da	0.65832293

st_gcns.0.residual.1.bias f4 [5]
0	0xbe99ebce	-0.30062717
1	0xbcb85540	-0.022501588
2	0x3b641706	0.0034803762
3	0xbe2659cf	-0.16245197
4	0xbeac2405	-0.3362123

st_gcns.0.residual.1.running_mean f4 [5]
0	0xbf0d27e4	-0.55138993
1	0x3e6d9249	0.23200335
2	0x3c48a3a1	0.012246043
3	0x3ed79f22	0.42113596
4	0x3ed3c70d	0.413628

st_gcns.0.residual.1.running_var f4 [5]
0	0x358400e3	9.835024e-07
1	0x33ab11fa	7.966078e-08
2	0x32e82137	2.7023459e-08
3	0x32ec6d4d	2.752372e-08
4	0x36cccfc6	6.103862e-06

tpcnns.0.weight f4 [12, 8, 3, 3]
0	0xbd8b8caf	-0.06813943
1	0xbb5bdad6	-0.0033547184
2	0x3cc96aab	0.024586996
3	0xbd291b1f	-0.04128563
4	0x3d45b4b3	0.04826803
5	0x3d2d0133	0.04223747
6	0xbdb7eb8d	-0.089804746
7	0xbd5f3e6a	-0.054502882
8	0xbd734da3	-0.059400212
9	0xbdbaa632	-0.091137305
10	0x3d0f83d2	0.035037823
11	0xbdccfc73	-0.10009088
12	0x3d507502	0.050892837
13	0xbddd2bca	-0.10799368
14	0xbd87063e	-0.065929875
15	0xbddefeb9	-0.10888428
16	0x3bbd60b9	0.0057793525
17	0xbdb74cdf	-0.08950209
18	0xbdd0436d	-0.101691104
19	0xbcf518a3	-0.029918974
20	0xbd86de3a	-0.06585355
21	0x3cba23c1	0.022722127
22	0x3d18d80e	0.03731542
23	0xbbe23cee	-0.006904236
24	0xbbba5bc8	-0.0056872107
25	0xbce08265	-0.027405927
26	0xbd243be5	-0.040096182
27	0xbb8fed5d	-0.0043923096
28	0x3a8cb0e1	0.0010733866
29	0xbd786470	-0.06064266
30	0xbdb373b4	-0.08762303
31	0xbe2887f3	-0.1645811
32	0xbdf02680	-0.11726093
33	0xbd26770e	-0.040640883
34	0x3d60fbbc	0.054927573
35	0xbd777865	-0.06041755
36	0xbddc0ec9	-0.107450075
37	0xbdc29e01	-0.09502793
38	0xbd7d06d1	-0.06177408
39	0xbd826ca9	-0.063683815
40	0xbd512a74	-0.051065877
41	0x3d45267e	0.048132412
42	0xbd2d75ce	-0.042348675
43	0xbd03e62c	-0.03220193
44	0xbdae04c6	-0.08497004
45	0x3d744d33	0.059643935
46	0x3cf4ec5c	0.029897861
47	0xbd7d471f	-0.061835404
48	0x3d2ddd11	0.042447153
49	0x3d2ca876	0.042152844
50	0xbc62cd4f	-0.013842895
51	0xbd1e3f34	-0.038634494
52	0xbc35bbd4	-0.011092145
53	0xbdda883e	-0.106705174
54	0xbd92cc65	-0.071678914
55	0xbdf7bc22	-0.1209643
56	0xbd5d48e3	-0.05402459
57	0xbd854384	-0.06507018
58	0xbc363a2c	-0.011122268
59	0xbb5f96f5	-0.0034117077
60	0xbb68bbc6	-0.0035512312
61	0xbd04890b	-0.032357257
62	0xbc929f20	-0.017898142
63	0x3dbc80a1	0.092042215
64	0x3d5e77ff	0.054313656
65	0xbdadb6d8	-0.0848214
66	0xbd5867b7	-0.052833285
67	0xbce9329c	-0.028466515
68	0x3ce8d5fd	0.02842235
69	0xbd6bf630	-0.05760783
70	0xbd1dfb01	-0.038569454
71	0x3c601f17	0.013679287
72	0x3cbe30f8	0.02321671
73	0xbd9a99e5	-0.07548884
74	0xbdad8e6b	-0.0847443
75	0xba8213d0	-0.0009924117
76	0x3b24aecf	0.0025128608
77	0xbd172979	-0.036904786
78	0xbd9a8211	-0.075443394
79	0x3d25cf30	0.040480793
80	0x394dcfd1	0.00019627741
81	0xbd3403a8	-0.0439488
82	0xbd791c84	-0.06081821
83	0xbc8a21f3	-0.016861891
84	0x3c988d61	0.018622102
85	0xbd758106	-0.0599375
86	0xbdd04334	-0.10169068
87	0xbd377205	-0.044786472
88	0xbe046123	-0.1292768
89	0xbbb2105b	-0.0054340786
90	0x3dc78bbe	0.097434506
91	0xbcef4b29	-0.029210644
92	0x3d0ecd73	0.0348639
93	0xbd29ac99	-0.041424368
94	0x3c4d2fe4	0.012523625
95	0x3cef3186	0.02919842
96	0x3c802e3b	0.015647044
97	0xbcbd8362	-0.023133937
98	0x3dbd0883	0.09230139
99	0xbe054f7d	-0.13018604
100	0x3cabcfbd	0.02097308
101	0x3db119a9	0.086474724
102	0xbd5d8381	-0.05408049
103	0x3bbd6f38	0.0057810806
104	0xbd50c553	-0.050969433
105	0xbde30f68	-0.11086923
106	0x3dcb0684	0.09913352
107	0xbd52bd16	-0.051449858
108	0xbd801e9c	-0.06255838
109	0xbd78aa49	-0.06070927
110	0xbcb5eefb	-0.022208681
111	0xbe355211	-0.17707087
112	0xbc79dc85	-0.01525033
113	0xbe0c34b4	-0.1369198
114	0x3c843813	0.01614002
115	0xbdf74227	-0.120731644
116	0xbe0a8980	-0.13529015
117	0xbde185fa	-0.11011882
118	0x3d85bddc	0.065303534
119	0x3c53c13f	0.012924491
120	0xbde630b8	-0.11239761
121	0x3c0316ef	0.008001073
122	0x3ca106a3	0.019656485
123	0xbd61c82a	-0.055122532
124	0xbd83e53a	-0.06440206
125	0xbc092189	-0.008369812
126	0xbdb4fc98	-0.08837241
127	0xbd147fd6	-0.036254726
128	0x3c5ce8b9	0.01348322
129	0xbe1d990a	-0.15390411
130	0x3d21938d	0.039447356
131	0xbc176053	-0.009239274
132	0xbe115d8a	-0.14195839
133	0xbbbd7f4b	-0.005782997
134	0xbde9b5f4	-0.11411658
135	0xbdaa69ee	-0.08320986
136	0x3b91b127	0.004446167
137	0xbc51869a	-0.012788439
138	0xbde66c6e	-0.1125115
139	0x3a2844a4	0.00064189197
140	0x3cb3e34a	0.021958966
141	0x3d70a038	0.058746547
142	0x3b5a2fe2	0.00332927
143	0xbd229ea3	-0.03970207
144	0xbbeb366e	-0.0071781194
145	0x3c87c69e	0.0165742
146	0xbd698d1f	-0.05701935
147	0xbdea71ed	-0.11447511
148	0xbd6df9bc	-0.058099493
149	0xbdde7e12	-0.1086389
150	0x3d8ba520	0.068186045
151	0xbd433115	-0.04765423
152	0x3db32135	0.08746568
153	0x3bb68a90	0.005570717
154	0xbce2e58f	-0.027697353
155	0x3b50834e	0.0031816545
156	0xbd9259fc	-0.071460694
157	0xbd22472c	-0.039618656
158	0xbd28187c	-0.041038975
159	0xbd7cd89f	-0.061730023
160	0xbcb2a00c	-0.021804832
161	0xbc2e00e1	-0.010620327
162	0x3c4e2b3b	0.012583549
163	0x3d25d2b6	0.040484153
164	0x3d8bbee9	0.068235226
165	0xbcc3b674	-0.023890711
166	0x3d01acdb	0.03165899
167	0x3cb45233	0.022011852
168	0xbcda2da5	-0.026633093
169	0xbdd4f1b5	-0.103976645
170	0x3d4b4a3f	0.049631353
171	0xbe0da58c	-0.13832682
172	0xbd8e4cc2	-0.06948234
173	0xbca51310	-0.020150691
174	0xbd1300cd	-0.035889436
175	0xbe188b0a	-0.14896789
176	0xbd19230e	-0.037386946
177	0xbd8ae0e9	-0.067811795
178	0xbc6c68fa	-0.014429325
179	0x3d8cd7c3	0.06877091
180	0x3d0e7a6a	0.034784712
181	0xbb5a4218	-0.0033303555
182	0x3cbf8ef3	0.023383593
183	0x3d2f6e8f	0.042830046
184	0xbd253d00	-0.040341377
185	0x3b2f1e0e	0.0026720795
186	0xbda11cb6	-0.07866804
187	0xbc49112d	-0.012272161
188	0xbdc000c0	-0.09375143
189	0x3cd6a61e	0.026202258
190	0xbd33d4ba	-0.043904044
191	0xbddba542	-0.1072488
192	0xbdb53015	-0.088470615
193	0x3d9c228d	0.076237775
194	0x3d5ad605	0.05342676
195	0xbd477e7e	-0.048704617
196	0xbdbfc875	-0.09364406
197	0xbca87b82	-0.020566706
198	0x3b267677	0.00254002
199	0x3d35590a	0.044274367
200	0xbd82b040	-0.06381273
201	0xbc209fbd	-0.00980371
202	0xbd37a4d8	-0.04483494
203	0xbd65667a	-0.056005932
204	0xbd43448e	-0.0476728
205	0x3c7793b4	0.015110899
206	0x3da3d34b	0.07999285
207	0x3d2ee31c	0.042697057
208	0x3d6865a6	0.056737565
209	0xbd2f34ce	-0.042774968
210	0xbcda56fb	-0.026652804
211	0xbd2e8b80	-0.042613506
212	0xbd95d548	-0.07316071
213	0x3cb073a9	0.021539526
214	0x3c44997d	0.011999485
215	0x3d8cb74f	0.06870901
216	0xbcaaa5bf	-0.020830987
217	0xbd75082a	-0.05982224
218	0xbd71c614	-0.059026793
219	0x3c96db05	0.018414984
220	0x3c161097	0.009159229
221	0x3ca3c9cc	0.019993685
222	0xbde20a6c	-0.11037144
223	0x3d0470ba	0.032334067
224	0x3c3529ed	0.011057359
225	0x3d3609ae	0.044442825
226	0x3d2cf530	0.042226017
227	0xbddfb94d	-0.10924015
228	0xbdfffc02	-0.124992386
229	0xbcf77494	-0.030206956
230	0xbc697cdd	-0.014250961
231	0x3d6a960d	0.057272006
232	0x3ccd1449	0.025034087
233	0xbdf30647	-0.11866432
234	0xbdaecec9	-0.08535535
235	0x3ca37f77	0.01995824
236	0x3d7395e1	0.059469108
237	0xbd3615c3	-0.044454347
238	0xbbe10ff0	-0.006868355
239	0xbd99bb17	-0.07506388
240	0xbd8d887a	-0.069107965
241	0xbc8fcb3d	-0.017552966
242	0xbd88b4a8	-0.066750824
243	0xbda34e6c	-0.07973942
244	0xbd909fc8	-0.07061726
245	0x3c3c908c	0.011509072
246	0xbe0fdaa2	-0.14048246
247	0x3d8ff035	0.07028238
248	0x3d0a5547	0.033772733
249	0xbdb71129	-0.0893882
250	0xbbf659fd	-0.0075180517
251	0xbdb2c80d	-0.08729563
252	0xbbda86aa	-0.0066688852
253	0xbcb45f76	-0.022018176
254	0xbd7ba870	-0.06143993
255	0x3d52937e	0.05141019

tpcnns.0.bias f4 [12]
0	0xbdfc1487	-0.12308603
1	0x3c9131fe	0.017724033
2	0xbe042c9e	-0.12907645
3	0xbb96ee4b	-0.0046060435
4	0xbdb957cc	-0.09049949
5	0xbd801468	-0.06253892
6	0xbdafacca	-0.08577879
7	0x3ea61eba	0.32445318
8	0xbe2de89d	-0.16983266
9	0x3f02f808	0.51159716
10	0xbdc46686	-0.09589867
11	0xbbb55663	-0.0055339797

tpcnns.1.weight f4 [12, 12, 3, 3]
0	0x3d196db9	0.037458155
1	0x3d483cf9	0.048886273
2	0xbdd7cb2e	-0.105368
3	0xbda07790	-0.07835305
4	0xbc8ad47f	-0.01694703
5	0xbdb2327b	-0.08701035
6	0x3d36b4a7	0.044605877
7	0xbd864820	-0.065567255
8	0xbd2689ca	-0.04065875
9	0xbc9c758f	-0.019099025
10	0xbcb54722	-0.022128645
11	0x3d4e42a2	0.050356515
12	0xbc8eaa8e	-0.017415311
13	0x3d4e63fa	0.050388314
14	0xbd4435ec	-0.047902986
15	0xbd430c6d	-0.047619272
16	0xbd0cbbc1	-0.034358744
17	0x3d629e0d	0.05532651
18	0x3c24ced6	0.010059079
19	0x3d825fa0	0.06365895
20	0x3d8f4b90	0.06996834
21	0xbaedaf51	-0.0018133913
22	0xbdb41067	-0.08792191
23	0x3d1515c0	0.036397696
24	0x3c83c737	0.016086204
25	0xbdbb8fc9	-0.09158284
26	0xbd70b6a8	-0.058767945
27	0xbd1110f4	-0.03541656
28	0xbd18896f	-0.037240442
29	0xbd8cdb8a	-0.06877811
30	0xbda7ae78	-0.08187574
31	0x3cec1dc4	0.028822787
32	0xbdcb525d	-0.09927819
33	0xbd81881c	-0.06324789
34	0xbdb7d967	-0.08977013
35	0x3d5dd912	0.054162093
36	0x3adbe612	0.001677694
37	0x3ce83e18	0.028349921
38	0x3cabc6da	0.020968843
39	0xbca3c8aa	-0.019993145
40	0xbd7e3ceb	-0.062069815
41	0xbd9c226e	-0.076237544
42	0x3d9fd914	0.07805076
43	0xbd758ca8	-0.059948593
44	0xbdbcb087	-0.092133574
45	0xbca6beae	-0.020354595
46	0x3cfe8ff3	0.0310745
47	0xbda160dc	-0.078798026
48	0xbc834726	-0.016025137
49	0x3b9a42e2	0.00470768
50	0xbd18f471	-0.037342492
51	0xbdc8e8a3	-0.09809997
52	0x3d0c08e4	0.034188166
53	0xbce1125c	-0.027474575
54	0xbd7cc945	-0.061715383
55	0xbd878c8e	-0.066186056
56	0x3d0374e5	0.0320939
57	0x3d048c3c	0.0323603
58	0x3da56e55	0.08077685
59	0xbd868fe3	-0.06570413
60	0x3d9110e4	0.070833
61	0x3d3bdfd5	0.04586776
62	0xbdb8d7f8	-0.09025568
63	0x3be8d919	0.007105958
64	0xbd9d0e6a	-0.07668765
65	0xbbb211d1	-0.005434253
66	0xbd8f4a5c	-0.06996605
67	0xbd5b6192	-0.053559847
68	0x3d32f1e5	0.04368772
69	0xbd95ce32	-0.07314719
70	0x3d06b708	0.032889396
71	0xbd2c0845	-0.042000074
72	0xbd50c95d	-0.050973285
73	0x3d9cfde8	0.07665616
74	0xbdae9bdd	-0.08525822
75	0xbdb634b4	-0.08896771
76	0xbd02ae1a	-0.031904317
77	0xbd92fca5	-0.07177094
78	0xbd6d4c4f	-0.0579341
79	0x3d8b14d8	0.06791085
80	0xbd8dcc51	-0.06923736
81	0x3d0d504e	0.034500413
82	0x3d25e9a4	0.04050602
83	0x3dd3f26c	0.10348973
84	0x3cec1ebb	0.028823247
85	0xbb8624be	-0.0040937355
86	0x3a864548	0.0010244036
87	0xbc2fa762	-0.0107210595
88	0x3aa20d31	0.001236355
89	0xbcd490bb	-0.02594792
90	0xbd6ba382	-0.05752898
91	0xbd8bcc26	-0.068260476
92	0x3c3640a0	0.011123806
93	0xbd771678	-0.060324162
94	0x3d8c2b7d	0.06844232
95	0x3cd3df48	0.025863305
96	0x3c6eef06	0.014583355
97	0xbdb10c54	-0.086449295
98	0xbd1a9500	-0.037739754
99	0x3cf0b7e4	0.02938456
100	0xbd46989e	-0.04848539
101	0x3b014904	0.0019727359
102	0x3cdc6931	0.026905628
103	0xbc8aa2fe	-0.016923424
104	0x3dad23c7	0.084540896
105	0xbd594fb7	-0.053054538
106	0xbdc5e2a4	-0.09662369
107	0x3d1f8048	0.038940698
108	0x3c79d5dc	0.015248742
109	0x3db89753	0.09013238
110	0x3dd8a844	0.10578969
111	0xbc9f89b4	-0.019474842
112	0xbc0d8244	-0.008637015
113	0x3de12f09	0.10995299
114	0xbc05fbc2	-0.0081776995
115	0x3e02e985	0.12784393
116	0x3db6f747	0.08933883
117	0xbdeaa744	-0.11457685
118	0xbd110832	-0.035408206
119	0xbd566caf	-0.052349743
120	0xbc24dc78	-0.0100623295
121	0xbe9015dd	-0.2814168
122	0xbcdf4650	-0.027255207
123	0xbd1b805c	-0.03796421
124	0xbe509e51	-0.20372893
125	0x3c836693	0.016040122
126	0xbc2606bf	-0.010133444
127	0xbd8dd837	-0.06926005
128	0xbcc58cb3	-0.024114942
129	0x3d7fb26d	0.06242602
130	0xbd3bde75	-0.04586645
131	0xbd2dea28	-0.042459637
132	0xbd42a3fb	-0.047519665
133	0xbd18dcbf	-0.037319895
134	0xbd52deac	-0.051481888
135	0x3d4f3363	0.050586116
136	0xbd5c99a2	-0.053857453
137	0x3d5e02c4	0.054201856
138	0xbdda33f3	-0.1065444
139	0xbe3de859	-0.18545665
140	0x3bc7642b	0.006084939
141	0x3d712cc4	0.058880582
142	0x3d0f6779	0.03501079
143	0xbd363e8c	-0.044493243
144	0xbd4d873b	-0.050177794
145	0x3d80e17f	0.0629301
146	0xbc2b76e1	-0.010465355
147	0x3d2cc8d1	0.0421837
148	0x3d53e276	0.05172964
149	0xbdd03f16	-0.10168283
150	0xbd0a4899	-0.03376064
151	0xbc31d2ac	-0.010853451
152	0xbb94fc6a	-0.0045466917
153	0x3d975aad	0.07390342
154	0x3de46bb7	0.111533575
155	0xbd99a191	-0.075015195
156	0xbdf38929	-0.118913956
157	0xbd14a1c0	-0.03628707
158	0xbdc84b90	-0.097800374
159	0x3d87fc2b	0.06639894
160	0x3d557fe6	0.052123927
161	0x3d02021a	0.031740285
162	0x3db8debe	0.0902686
163	0x3d8c203d	0.068420865
164	0xbd1dbe33	-0.038511466
165	0x3d419d25	0.047269005
166	0x3ddf5cbd	0.1090636
167	0x3cf26774	0.029590346
168	0x3d20f8f9	0.03929994
169	0x3ce85597	0.028361125
170	0x3dde28c0	0.10847616
171	0xbd9386a7	-0.07203417
172	0x3d5636be	0.0522983
173	0x3d92e0b1	0.07171763
174	0xbd5cd780	-0.053916454
175	0xbdf4a6ef	-0.119459026
176	0xbd0a7f69	-0.033812914
177	0x3d9c96f8	0.076459825
178	0xbd36ae47	-0.044599798
179	0xbd86fbc6	-0.06590991
180	0x3d2a8962	0.041634925
181	0x3dc1d1f2	0.09463872
182	0xbcbc88bb	-0.023014417
183	0xbd03314c	-0.032029435
184	0x3d64e2fe	0.05588054
185	0xbccf80bf	-0.025329946
186	0xbca49019	-0.020088242
187	0xbc6e2ac4	-0.014536563
188	0xbd832ee3	-0.06405427
189	0xbe30656b	-0.17226188
190	0xbed3589a	-0.41278535
191	0xbe89fc40	-0.26950264
192	0xbe2b4340	-0.16724873
193	0xbde71ad3	-0.11284413
194	0xbe2b049b	-0.16700976
195	0xbe420c92	-0.18950108
196	0xbd7ca766	-0.06168308
197	0xbd4f83f2	-0.050662942
198	0x3d1d2dfd	0.038373936
199	0x3c7bb38b	0.015362631
200	0x3b9efd5a	0.004851979
201	0xbcbdcb2f	-0.023168175
202	0xbcee5ba6	-0.029096436
203	0xbc634161	-0.013870568
204	0x3d530aaf	0.05152386
205	0xbd2f8470	-0.04285091
206	0x3a62d94b	0.0008653595
207	0xbc45564a	-0.012044499
208	0xbbb8d78d	-0.00564093
209	0xbbed69fb	-0.0072453
210	0x3cc0e53a	0.023546804
211	0xbe1d054b	-0.1533405
212	0xbdabd493	-0.08390155
213	0x3caae1ad	0.020859564
214	0x3d87006f	0.065918796
215	0xbd0acd46	-0.03388717
216	0x3c80168f	0.015635757
217	0x3c3e3f9a	0.0116118435
218	0xbda2b251	-0.079441674
219	0xbd84f46a	-0.06491931
220	0x3dc934db	0.098245345
221	0xbd4fe2fa	-0.05075357
222	0x3da0ea6a	0.07857211
223	0xbc6f16a4	-0.0145928
224	0xbd2035d3	-0.03911383
225	0xbdb87422	-0.090065256
226	0xbdeea64b	-0.116528116
227	0xbd30ae95	-0.043135244
228	0x3d2a82cc	0.041628644
229	0x3d9b4e1f	0.0758326
230	0xbd7a8371	-0.06116051
231	0xbd8d61ba	-0.069034055
232	0xbd4815d9	-0.04884896
233	0xbda1f652	-0.0790831
234	0xbd88c3dc	-0.06677982
235	0x3ce80363	0.028321927
236	0xbd13c2a7	-0.036074307
237	0xbd75631a	-0.059908964
238	0x3ab1711d	0.0013537739
239	0xbddb395f	-0.10704302
240	0xbbdb65c6	-0.006695482
241	0x3d046087	0.03231862
242	0xbccfc6ed	-0.02536341
243	0x3dacbed2	0.084348336
244	0xbb9dd85f	-0.004817053
245	0x3cf28996	0.029606622
246	0xbd498a22	-0.049204
247	0xbe130fda	-0.14361516
248	0x3cba5467	0.022745324
249	0x3ccd7774	0.025081374
250	0x3d0a329d	0.033739675
251	0xbd9fb420	-0.07798028
252	0xbcf5ff03	-0.030028826
253	0xbd8ed6a2	-0.06974532
254	0xbd95b31b	-0.07309552
255	0xbd3c7d5b	-0.046017986

tpcnns.1.bias f4 [12]
0	0xbd250574	-0.040288404
1	0x3db0cc48	0.086327136
2	0x3daed835	0.08537332
3	0x3c1a2338	0.009407811
4	0x3e50fe2f	0.20409463
5	0xbd235eb5	-0.03988524
6	0xbd356015	-0.044281084
7	0xbe8baffd	-0.27282706
8	0xbdb71a4b	-0.08940562
9	0xbed1f1cc	-0.4100479
10	0x3e24ba61	0.16086723
11	0x3a4d104c	0.0007822558

tpcnns.2.weight f4 [12, 12, 3, 3]
0	0xbd5ec375	-0.05438562
1	0xbc977fad	-0.018493498
2	0x3cc24ea3	0.023719138
3	0x3cf6a61a	0.0301085
4	0xbcaa3a98	-0.020779893
5	0xbdbac3c6	-0.09119372
6	0x3bf0028e	0.0073245233
7	0xbb296dd8	-0.0025852825
8	0xbdca83b1	-0.098883994
9	0x3db9c3fb	0.090705834
10	0x3c847ff0	0.016174287
11	0x3d3e00eb	0.046387594
12	0xbd9044cf	-0.07044374
13	0xbb273fd2	-0.0025520218
14	0xbd6da402	-0.05801774
15	0xbcf8c149	-0.030365603
16	0xbd901b6a	-0.07036479
17	0x3b597e21	0.003318675
18	0xbc3ca45d	-0.011513797
19	0x3d0eefe4	0.034896746
20	0xbd260574	-0.040532544
21	0xbd312a93	-0.043253493
22	0xbc1445a7	-0.00904981
23	0xbdb373c9	-0.08762319
24	0xbd7cd39b	-0.06172524
25	0xbdac5125	-0.084139146
26	0xbd9b9da0	-0.07598424
27	0x3d4806db	0.048834663
28	0xbd575e67	-0.052580263
29	0xbd9bbb71	-0.07604111
30	0x3c9ba1b6	0.018998008
31	0xbb19a4ac	-0.00234441
32	0x3cfabbd4	0.030607142
33	0x3b88984a	0.004168545
34	0x3d9479ac	0.072497696
35	0x3d3e3c8a	0.046444453
36	0x3d89c822	0.067276254
37	0xbce1afde	-0.02754968
38	0x3dcbcd48	0.09951264
39	0xbc8d5f29	-0.01725729
40	0xbe075df4	-0.13219434
41	0xbd8cb69a	-0.06870766
42	0xbd342250	-0.043978035
43	0x3d9d7c1e	0.07689689
44	0xbd8a2b92	-0.06746592
45	0x3c8fca56	0.017552536
46	0x3ce63c37	0.028104885
47	0x3d5db5e6	0.05412855
48	0x3d71b78d	0.05901294
49	0xbdc9060f	-0.09815609
50	0xbcec8327	-0.028871132
51	0xbdaad981	-0.08342267
52	0x3c7590d1	0.01498814
53	0xbd9ae772	-0.07563676
54	0xbb898433	-0.0041966676
55	0xbc5c95fb	-0.0134634925
56	0xbdd5b749	-0.104353495
57	0xbd7eec88	-0.062237293
58	0xbe1348be	-0.14383218
59	0xbe02c21c	-0.1276936
60	0xbd5c59ff	-0.053796764
61	0xbd747a51	-0.059686963
62	0xbd996a81	-0.07491017
63	0x3d961308	0.07327849
64	0xbdc2f05a	-0.095185
65	0xbdded7dd	-0.108810164
66	0xbd801ef8	-0.06255907
67	0x3d96dde2	0.073665395
68	0xbcc27b6e	-0.023740496
69	0x3cd488a2	0.025944058
70	0xbaa86bce	-0.0012849511
71	0xbda5caf2	-0.08095349
72	0xbd0973a5	-0.033557553
73	0x3c94036b	0.018068036
74	0xbd9d9be9	-0.07695753
75	0x3d495eea	0.049162783
76	0x3d668563	0.05627955
77	0xbd156c3c	-0.036480173
78	0xbdaf934d	-0.08573017
79	0x3d859e01	0.065242775
80	0xbbe268f5	-0.0069094845
81	0xbd046013	-0.032318186
82	0x3d867b42	0.06566478
83	0x3d892fe2	0.06698586
84	0xbd3c13b3	-0.045917224
85	0x3d0084be	0.031376593
86	0x3ca64c25	0.02029998
87	0xbcfbf073	-0.030754304
88	0xbd671ae6	-0.056422137
89	0xbd181a39	-0.037134383
90	0x3d145b96	0.036220156
91	0x3d8970a0	0.06710935
92	0xbd066216	-0.032808386
93	0x3d2dfd4e	0.0424779
94	0x3d51cfc7	0.051223543
95	0xbce5ff33	-0.02807579
96	0xbd8dcb49	-0.06923539
97	0xbdab248f	-0.083565824
98	0xbdb72e4e	-0.08944379
99	0x3d705fc5	0.058685083
100	0xbd80fd02	-0.062982574
101	0xbdb78e69	-0.089627095
102	0x3d5fb670	0.054617345
103	0x3d9354f8	0.07193941
104	0xbd708729	-0.05872265
105	0x3d51270d	0.051062632
106	0x3c9294da	0.017893244
107	0xbcc8e57d	-0.024523491
108	0xbc1c096c	-0.009523731
109	0x3d1f6057	0.038910236
110	0x3e0748fb	0.13211434
111	0xbbfff640	-0.0078113377
112	0x3ce39700	0.027781963
113	0x3dbd7cf8	0.092523515
114	0xbcdec5d0	-0.027193934
115	0x3cd6b353	0.026208555
116	0x3dce20c6	0.10064845
117	0xbdffc0a5	-0.12487916
118	0xbe5bdf6b	-0.21471946
119	0xbe0e16e0	-0.13875914
120	0xbdc51545	-0.096231975
121	0xbe1c7293	-0.15278082
122	0xbd9ce757	-0.07661312
123	0xbce0585c	-0.027385883
124	0xbdca84fc	-0.09888646
125	0x3dacea53	0.08443131
126	0xbd864473	-0.065560244
127	0xbdf0c29d	-0.117558695
128	0xbd2db268	-0.04240647
129	0x3c1ac521	0.009446413
130	0xbcfb1017	-0.03064732
131	0xbae299b5	-0.001728824
132	0xbdca7f7d	-0.09887598
133	0x3dce3451	0.10068572
134	0xbcfc75ec	-0.030817948
135	0xbd92cceb	-0.07167991
136	0x3c93147a	0.0179541
137	0xbdc5c7b4	-0.09657231
138	0xbd338b88	-0.04383424
139	0xbd414fc9	-0.04719523
140	0x3c0edd49	0.008719751
141	0x3cec4cac	0.028845154
142	0x3ba7d420	0.005121723
143	0xbdaf7e6f	-0.08569037
144	0xbdb37341	-0.08762217
145	0xbcd3def1	-0.025863143
146	0xbdb52582	-0.08845045
147	0xbc682cb6	-0.014170816
148	0xbd9729e6	-0.07381038
149	0xbd5d641f	-0.05405056
150	0x3d3c6c5f	0.04600179
151	0xbd493a03	-0.04912759
152	0xbdbf1c7c	-0.09331605
153	0x3d840cce	0.06447755
154	0xbcc941b6	-0.024567466
155	0x3d236835	0.0398943
156	0xbcb2de00	-0.021834373
157	0xbd44b3c4	-0.048023
158	0xbd76e089	-0.060272727
159	0x3c56eccc	0.01311798
160	0x3d0a5663	0.03377379
161	0x3db73847	0.08946281
162	0xbd2fc33b	-0.042910796
163	0x3deee0be	0.1166396
164	0xbae670e3	-0.001758125
165	0x3d24110b	0.040055316
166	0x3dceccac	0.10097632
167	0x3b9a0ebc	0.0047014635
168	0x3ca5c651	0.020236166
169	0x3d6b7ffb	0.0574951
170	0xbd044e54	-0.032301262
171	0xbd79471e	-0.06085884
172	0x3e1cdffb	0.15319817
173	0x3e18e5cc	0.1493141
174	0xbc71283a	-0.014719063
175	0xbd922239	-0.07135434
176	0xbcab1670	-0.020884722
177	0xbc03d37d	-0.008046028
178	0xbdb9d71c	-0.09074232
179	0xbc0a4c77	-0.008441082
180	0x3dd722b5	0.10504667
181	0x3cadc942	0.021214131
182	0x3d6914ba	0.056904532
183	0x3dae4c80	0.08510685
184	0x3d86947d	0.06571291
185	0x3cf0f8f2	0.029415581
186	0xbc979e15	-0.018507997
187	0xbd633c51	-0.055477444
188	0xbd082c9b	-0.033245664
189	0xbdd15cb9	-0.102227636
190	0xbe7c4767	-0.24636613
191	0xbe337222	-0.17524007
192	0xbd0aeec0	-0.033919096
193	0xbdd4008d	-0.103516676
194	0xbdc4fc4f	-0.096184365
195	0x3deb22da	0.11481257
196	0x3e06760d	0.1313097
197	0xbe30143f	-0.17195223
198	0xbdda0b1b	-0.106466495
199	0xbd59cf4b	-0.053176206
200	0xbd4de847	-0.050270345
201	0xbd848836	-0.06471293
202	0xbd979ee9	-0.074033566
203	0xbd9efa06	-0.07762532
204	0x3c8ef320	0.017449915
205	0x3da1b438	0.07895702
206	0xbdb1604c	-0.08660945
207	0xbd5ace70	-0.05341953
208	0xbc90561d	-0.017619187
209	0x3cfcb638	0.030848607
210	0xbd9bbd23	-0.07604434
211	0xbd9dac0b	-0.0769883
212	0xbdbca522	-0.09211184
213	0xbda5b311	-0.08090795
214	0xbd001ef2	-0.03127951
215	0xbd8df6e7	-0.069318585
216	0x3da49783	0.08036711
217	0xbc1d0464	-0.009583566
218	0x3d3847dd	0.04499041
219	0xbda0eee8	-0.07858068
220	0x3d9f1828	0.07768279
221	0x3d311805	0.043235797
222	0x3d5facc3	0.054608118
223	0x3dd60e83	0.10451987
224	0x3d475686	0.0486665
225	0x3c020bc0	0.007937372
226	0xbcdf514e	-0.027260449
227	0x3c6d6dd5	0.014491518
228	0xbd404a41	-0.046945814
229	0xbdcf4de3	-0.101222776
230	0xbd046dd5	-0.032331306
231	0x3d85e0dc	0.06537029
232	0xbd086669	-0.03330079
233	0xbd3b186b	-0.045677584
234	0x3cc22c52	0.023702774
235	0xbdb8912c	-0.09012064
236	0x3cc80cea	0.02442022
237	0xbdf3ca3f	-0.1190381
238	0xbca802a1	-0.020509066
239	0xbddfd178	-0.10928625
240	0x3d4ef1b3	0.05052347
241	0xbc8db1ad	-0.017296636
242	0x3cb50e54	0.022101559
243	0x3da44641	0.08021212
244	0xbd4a326c	-0.049364492
245	0xbdcba3f2	-0.099433795
246	0x3d8b2e88	0.067959845
247	0x3d250c69	0.04029504
248	0xbde6c0c4	-0.11267236
249	0xbd381bf4	-0.044948533
250	0xbd204756	-0.03913053
251	0x3c425304	0.011860613
252	0xbdcb6eb3	-0.099332236
253	0x3d421f44	0.0473931
254	0xbcc0daa3	-0.023541754
255	0x3cabb04b	0.020958086

tpcnns.2.bias f4 [12]
0	0xbd136083	-0.035980713
1	0xbbe5900c	-0.007005697
2	0xbd429c53	-0.047512364
3	0xbd44b92d	-0.04802816
4	0xbe18eb5c	-0.14933532
5	0x3d1d9c73	0.03847928
6	0xbe1f90d3	-0.1558259
7	0xbe58666a	-0.21132818
8	0x3cf1890d	0.029484296
9	0xbe3f280f	-0.18667625
10	0xbdb21acc	-0.08696517
11	0xbca871b2	-0.020562027

tpcnns.3.weight f4 [12, 12, 3, 3]
0	0xbdbffc67	-0.09374314
1	0x3d87576c	0.06608471
2	0xbd9c6ce1	-0.076379545
3	0x3d3e9872	0.046532102
4	0x3c9a5257	0.01883809
5	0x3d328018	0.04357919
6	0xbcc58899	-0.024112986
7	0xbde5ece0	-0.11226821
8	0xbd9a4c87	-0.07534128
9	0xbd518284	-0.05114986
10	0xbcf25836	-0.029583078
11	0xbc3daeac	-0.01157729
12	0x3c808878	0.015690073
13	0xbbd1898f	-0.006394572
14	0xbca956a8	-0.020671204
15	0x3da67929	0.08128578
16	0x3d502543	0.050816786
17	0xbd8a4acd	-0.06752548
18	0x3d7f8d0b	0.06239037
19	0xbdf2ae0c	-0.11849603
20	0xbdbe4f10	-0.09292424
21	0xbdd13b84	-0.1021643
22	0xbdf5a72a	-0.11994775
23	0x3d887931	0.066637404
24	0xbdaa5793	-0.08317485
25	0x3d8764da	0.06611033
26	0xbd6a3969	-0.057183657
27	0x3d236695	0.03989275
28	0xbdc46842	-0.09590198
29	0x3d7af044	0.06126429
30	0x3c8a566f	0.016886918
31	0x3ce54227	0.027985645
32	0xbd660a9b	-0.056162458
33	0x3c76a388	0.015053637
34	0x3d90c99f	0.07069706
35	0x3dac53ed	0.08414445
36	0xbd054536	-0.032536708
37	0x3c01a0fd	0.007911918
38	0x3d9cfd95	0.076655544
39	0x3da86036	0.08221476
40	0x3d8b8f34	0.06814423
41	0x3dae2d8d	0.08504782
42	0x3ca5ef82	0.020255808
43	0x3cd5e06a	0.026107986
44	0x3d2a3029	0.041549835
45	0x3d9b6f57	0.07589596
46	0x3d7c0534	0.0615284
47	0xbc5a9977	-0.013342253
48	0x3d1ba2e5	0.037997145
49	0x3dd71980	0.105029106
50	0xbd8c1e9e	-0.06841777
51	0x3d0c63dc	0.03427492
52	0x3d675f0d	0.056487132
53	0x3ce75435	0.028238395
54	0x3d13642b	0.0359842
55	0xbde49e94	-0.11163059
56	0xbd85ee6f	-0.06539618
57	0x3d059601	0.032613758
58	0xbc68551c	-0.014180448
59	0xbdec3f37	-0.11535495
60	0xbda47097	-0.08029287
61	0x3d27791f	0.040886994
62	0xbd3ed6c5	-0.04659154
63	0x3d247569	0.040151034
64	0xbd1e1f19	-0.038603876
65	0xbdc3797d	-0.095446564
66	0x3c1edfe8	0.009696938
67	0x3d9d8405	0.07691196
68	0x3db96722	0.09052874
69	0x3dbac998	0.09120482
70	0xbcb2d5b8	-0.021830425
71	0x3d7ee820	0.06223309
72	0x3c5d99c1	0.013525427
73	0x3dc8b972	0.09800996
74	0xbd8ae6ba	-0.06782289
75	0xbd42c2c8	-0.04754904
76	0x392b888b	0.00016358697
77	0x3d41e43c	0.047336802
78	0xbd8709d1	-0.06593669
79	0x3d40cd5b	0.047070842
80	0x3af30217	0.0018540052
81	0x3d0c7111	0.034287516
82	0xbd7edabe	-0.062220328
83	0xbb8f7ec7	-0.0043791267
84	0x3d7f0c19	0.062267397
85	0x3d31c9be	0.043405287
86	0x3ccd3892	0.025051389
87	0xbd89c3bc	-0.067267865
88	0xbd9b5c84	-0.07586005
89	0x3d171511	0.036885325
90	0xbda35118	-0.07974452
91	0x3c4239ff	0.011854648
92	0xbd9aa107	-0.07550245
93	0xbd3c5e34	-0.045988277
94	0xbd382682	-0.0449586
95	0xbc8b85c9	-0.017031567
96	0x3d85b010	0.06527722
97	0xbc030ec1	-0.007999123
98	0xbd4693a9	-0.048480663
99	0xbd6560d6	-0.056000553
100	0xbdc96f78	-0.09835714
101	0xbcd48173	-0.025940632
102	0xbd087c52	-0.033321686
103	0xb867c9d6	-5.5262666e-05
104	0x3d9a94e6	0.075479314
105	0x3d65ec54	0.056133583
106	0xbc61a8b9	-0.013773137
107	0xbdbca061	-0.09210277
108	0x3d03acd7	0.032147255
109	0x3d607019	0.054794405
110	0x3debc9cd	0.115131
111	0x3d99568e	0.07487212
112	0x3e05532c	0.13020009
113	0x3db50877	0.08839505
114	0xbb52bd26	-0.0032156198
115	0x3e1c1a25	0.15244348
116	0x3de5367d	0.111920334
117	0xbe7fbc93	-0.24974279
118	0xbe8683b5	-0.2627236
119	0xbe059885	-0.13046463
120	0xbd82a502	-0.06379129
121	0xbe40faed	-0.1884572
122	0xbd2ad560	-0.041707397
123	0xbd11fffe	-0.035644524
124	0xbd8ed362	-0.06973912
125	0xbdd4ea48	-0.10396248
126	0x3ae8a3cb	0.001774901
127	0xbe1bd361	-0.15217353
128	0xbddc8743	-0.107679866
129	0x3ce78a75	0.028264264
130	0xbdbe4b7d	-0.09291742
131	0xbd609fb9	-0.054839823
132	0x3d28bd48	0.041196138
133	0xbca7707a	-0.020439375
134	0x3c0ce918	0.008600496
135	0xbe01a20e	-0.12659475
136	0xbcd5f80f	-0.02611926
137	0xbe250c2a	-0.16117921
138	0xbd84c6a9	-0.06483204
139	0xbd9ca16c	-0.07647976
140	0xbe03c514	-0.12868148
141	0xbd86e661	-0.0658691
142	0xbd5f6dee	-0.054548196
143	0xbabe9099	-0.0014538943
144	0xb9c20cba	-0.00037012046
145	0xbd06aede	-0.03288161
146	0xbc042ee5	-0.008067821
147	0xbe325942	-0.17416862
148	0xbdbd9cfa	-0.092584565
149	0xbe471a7f	-0.19443701
150	0xbe1e7e60	-0.15477896
151	0x3c49728b	0.012295376
152	0xbca612e7	-0.020272685
153	0xbd4b0f25	-0.04957499
154	0xbd97d044	-0.074127704
155	0xbd226e40	-0.039655924
156	0xbcc51666	-0.024058532
157	0xbe00ac28	-0.12565672
158	0x3d15a4c9	0.036534104
159	0xbd8356bf	-0.0641303
160	0x3d729811	0.059227053
161	0xbc9ec962	-0.019383136
162	0x3cb50a68	0.022099689
163	0x3d91448f	0.07093155
164	0x3d584eb8	0.052809447
165	0x3e2b5088	0.16729939
166	0x3d332f13	0.043746065
167	0x3d076a31	0.033060256
168	0x3d260923	0.040536057
169	0xbb28f2fc	-0.0025779596
170	0x3c43ceb9	0.011951142
171	0x3e00c987	0.12576877
172	0x3d1b6bb5	0.037944514
173	0x3da90d3d	0.08254478
174	0x3c5dcc3f	0.013537466
175	0xbdb0ecf6	-0.08638947
176	0xbdc903ca	-0.09815176
177	0x3c1445cb	0.009049843
178	0xbc006648	-0.007836886
179	0xbd95a345	-0.07306532
180	0xbd649279	-0.05580375
181	0xbc14577e	-0.009054063
182	0xbd12f431	-0.03587741
183	0xbd819a42	-0.063282505
184	0xbe465d23	-0.19371466
185	0xbdfebc74	-0.12438288
186	0xbbd30237	-0.006439473
187	0xbdc8b1b7	-0.097995214
188	0xbd86eb88	-0.06587893
189	0xbe09c5cf	-0.13454364
190	0xbe8734f3	-0.26407585
191	0xbdfc1d11	-0.123102315
192	0xbe10770d	-0.14107914
193	0xbe068869	-0.13137974
194	0xbe1b4662	-0.15163568
195	0xbd9c2344	-0.07623914
196	0x3d107b3a	0.035273768
197	0xbdd9fb0b	-0.10643586
198	0xbd96e88e	-0.07368575
199	0xbd4c4e9f	-0.049879666
200	0xbd0e94cc	-0.034809873
201	0xbdb17b10	-0.086660504
202	0xbcc91ca5	-0.024549792
203	0xbe024259	-0.12720622
204	0xbe129a33	-0.14316635
205	0xbd1ee39c	-0.038791284
206	0xbdd2e9a0	-0.10298467
207	0x3d0bc5b0	0.034124076
208	0xbb3510e6	-0.002762848
209	0xbe208c43	-0.15678506
210	0xbcdf0f1a	-0.02722888
211	0xbe13a9e3	-0.14420275
212	0xbdfe410e	-0.12414752
213	0xbe10d4d5	-0.14143689
214	0xbe1bcbeb	-0.15214507
215	0xbd0ba669	-0.034094248
216	0xbd934ade	-0.07192014
217	0x3dea842e	0.114509925
218	0x3b7b40f2	0.003833827
219	0xbd6faa3d	-0.05851196
220	0x3cc55274	0.024087168
221	0xbd233b20	-0.039851308
222	0x3c1cc643	0.009568754
223	0x3d3d91f4	0.04628177
224	0xbcd07c15	-0.025449792
225	0xbdca70af	-0.09884774
226	0xbcc4e9ef	-0.02403733
227	0xbde76828	-0.11299163
228	0xbd679eb6	-0.056547843
229	0xbc75ab31	-0.0149944285
230	0x3c8496df	0.016185222
231	0x3cd81aad	0.026379908
232	0x3c1237f8	0.008924477
233	0x3c1cc670	0.009568796
234	0x3c6702f9	0.01409983
235	0xbcb9a344	-0.022660859
236	0x3c352ba5	0.011057769
237	0xbd107afe	-0.035273544
238	0xbdd80d90	-0.10549462
239	0xbd888bc4	-0.06667283
240	0xbd84c8ab	-0.06483587
241	0x3d3eb4d1	0.04655916
242	0xbcb945c3	-0.022616273
243	0xbdbcd109	-0.09219558
244	0x3ce5afe3	0.02803797
245	0xbdb56f7c	-0.088591546
246	0xbd18e815	-0.037330706
247	0xbd80bee7	-0.06286412
248	0x3d798783	0.06092025
249	0xbcf0678b	-0.029346248
250	0xbb30cc8f	-0.0026977395
251	0xbd061d04	-0.032742515
252	0xbc876ead	-0.016532267
253	0xbd83cea1	-0.06435896
254	0x3cf326a2	0.029681507
255	0x3ccc9737	0.024974449

tpcnns.3.bias f4 [12]
0	0xbe086170	-0.1331842
1	0xbdb07e67	-0.08617859
2	0xbd58b563	-0.05290736
3	0xbd8ff71b	-0.070295535
4	0xbdd877a5	-0.105696954
5	0xbd859b2f	-0.065237395
6	0xbe9bc6b2	-0.3042503
7	0xbdcd0d08	-0.10012251
8	0xbcc07d5c	-0.023497276
9	0xbe2e3e80	-0.1701603
10	0xbe05054e	-0.12990305
11	0xbd70c3b2	-0.05878038

tpcnns.4.weight f4 [12, 12, 3, 3]
0	0x3d92a47f	0.071602814
1	0xbda03d42	-0.07824184
2	0xbd9eccc4	-0.077539
3	0xbd9c8ea1	-0.07644392
4	0xbcfdc4f0	-0.030977696
5	0xbd421344	-0.047381654
6	0x3d9a0653	0.075207375
7	0xbdb19a68	-0.08672029
8	0x3dc0f8f7	0.09422486
9	0xbd9f7c9c	-0.07787439
10	0x3db18557	0.08668011
11	0x3c532a90	0.012888566
12	0x3d80d99b	0.06291505
13	0x3d526836	0.051368915
14	0xbcc74fa4	-0.024329968
15	0xbd91ab03	-0.07112696
16	0x3d80269b	0.062573634
17	0x3d095b2a	0.033534206
18	0xbda21c56	-0.07915561
19	0x3ce99fe8	0.028518632
20	0x3dacbbb5	0.0843424
21	0xbc8565c4	-0.016283877
22	0xbca50d28	-0.020147875
23	0xbdb2c240	-0.087284565
24	0x3d9e073d	0.07716224
25	0xbd2f54ad	-0.042805362
26	0xbdae0e81	-0.0849886
27	0x3d946d75	0.0724744
28	0x3dba64f9	0.0910129
29	0xbd94e712	-0.07270636
30	0x3d09ce4e	0.033644013
31	0xbd5a6d44	-0.05332686
32	0xbd341662	-0.04396666
33	0xbcebf6f4	-0.02880428
34	0x3d2c5886	0.04207661
35	0x3c58a1c0	0.013222158
36	0x3d8d3a1f	0.06895851
37	0xbd9f4201	-0.07776261
38	0xbd2f5c35	-0.042812545
39	0x3d91c3ef	0.071174495
40	0xbd3a2b38	-0.045451373
41	0xbd79c790	-0.060981333
42	0xbb9a6530	-0.0047117695
43	0xbd780fa2	-0.060561784
44	0xbdc1da86	-0.09465508
45	0x3db0dfa3	0.08636405
46	0xbce11a7c	-0.027478449
47	0xbd750b2d	-0.05982511
48	0x3d279c0a	0.040920295
49	0x3cf6b52c	0.030115686
50	0xbd50749e	-0.050892465
51	0x3d82cbeb	0.063865505
52	0xbd2de498	-0.042454332
53	0x3cb34a58	0.021886036
54	0x3d84bd6b	0.06481441
55	0x3dc077b7	0.09397834
56	0xbdaeb0fe	-0.08529852
57	0x3d51f3fa	0.051258065
58	0xbd9f43b0	-0.07776582
59	0x3d4f3b86	0.050593875
60	0x3dc198df	0.09452986
61	0xbd489178	-0.048966855
62	0xbdaa1663	-0.08305051
63	0xbcc7dfd8	-0.02439873
64	0x3d8dfa07	0.069324546
65	0x3c1c9c38	0.00955873
66	0x3c935800	0.017986298
67	0xbd404a9b	-0.04694615
68	0xbcf30acc	-0.029668234
69	0xbd715c10	-0.05892569
70	0xbc3ea4f8	-0.011636011
71	0x3d8556db	0.06510707
72	0x3bc911f0	0.0061361715
73	0xbc5e4ba0	-0.013567835
74	0xbd98e744	-0.074659854
75	0x3ccb2928	0.024799898
76	0x3d856a91	0.065144666
77	0xbd1da59d	-0.03848802
78	0xbd60cdc8	-0.05488375
79	0x3af86f00	0.0018953979
80	0xbc915ff8	-0.017745957
81	0x3c5cc718	0.013475202
82	0x3cdbf000	0.02684784
83	0xbd8c736f	-0.06857955
84	0xbd85e484	-0.065377265
85	0x3b760fa0	0.0037545934
86	0x3da81cb1	0.082085975
87	0x3d2e6ea2	0.042585976
88	0xbda18c99	-0.07888145
89	0xbd1f2cce	-0.03886109
90	0xbd620412	-0.055179663
91	0x3cfb7f6c	0.030700408
92	0x3daef355	0.08542506
93	0xbd818038	-0.06323284
94	0x3c0e7c30	0.008696601
95	0x3da19ab1	0.07890833
96	0x3d1b687e	0.03794145
97	0x3c728b90	0.014803782
98	0xbd292af0	-0.041300714
99	0xbd22d0fc	-0.039750084
100	0x3d4717ba	0.04860661
101	0xbcd5af8c	-0.026084684
102	0xbdbd087a	-0.092301324
103	0xbdb0b9b5	-0.08629171
104	0x3db7df0f	0.08978092
105	0x3c94f1b4	0.01818166
106	0xbd8d728e	-0.06906615
107	0x3d5f40e2	0.054505236
108	0x3cf845c4	0.030306704
109	0x3d8928f1	0.06697262
110	0xbd48e109	-0.049042735
111	0x3a91bd40	0.0011119023
112	0xbd33c3b0	-0.043887794
113	0xbdbf1ce4	-0.09331682
114	0xbc255aa8	-0.010092415
115	0x3d93dff9	0.07220454
116	0x3d7db2a2	0.061937936
117	0xbca592e0	-0.020211637
118	0xbd37ab05	-0.04484083
119	0xbd6e1401	-0.058124546
120	0xbd188916	-0.03724011
121	0xbd3913ac	-0.045184776
122	0x3d8462d3	0.06464162
123	0xbdba49bd	-0.09096096
124	0x3c2c0e30	0.010501429
125	0x3d8ecc7f	0.06972598
126	0xbcc0eb88	-0.02354981
127	0xbd16a7bb	-0.036781054
128	0x3d9cf28f	0.07663452
129	0x3d62c74e	0.055365853
130	0x3c8c2bfc	0.017110817
131	0x3d01f02e	0.031723194
132	0x3dbfbc6d	0.09362111
133	0x3d9eb6d9	0.07749719
134	0x3dbb10bd	0.09134052
135	0xbda6a98e	-0.08137809
136	0xbd18f7ce	-0.0373457
137	0xbccfe2d8	-0.025376722
138	0xbdb2789c	-0.08714411
139	0x3c907d14	0.017637767
140	0xbd1d21d9	-0.038362358
141	0xbd07d470	-0.03316158
142	0x3da70ee5	0.08157138
143	0xbcfba8c4	-0.030720122
144	0x3db13f39	0.08654637
145	0xbd8ed54a	-0.069742754
146	0xbad71940	-0.0016410723
147	0xbd50eefe	-0.05100917
148	0xbc9c1444	-0.019052632
149	0xbd94567a	-0.072430566
150	0xbd5a3c05	-0.053279895
151	0x3dbd0ec1	0.0923133
152	0xbdb5c0ad	-0.088746406
153	0xbc994f38	-0.018714532
154	0xbc59bb98	-0.013289355
155	0xbdad6d4e	-0.08468114
156	0xbbde0ff0	-0.0067768022
157	0xbd9ccc44	-0.07656148
158	0xbd59ecf0	-0.053204477
159	0x3d7b4346	0.061343454
160	0x3d0cb386	0.034350894
161	0xbd37cf49	-0.044875417
162	0xbcab15ac	-0.020884357
163	0xbd93daad	-0.072194435
164	0x3d70d0be	0.058792822
165	0x3d3c1df6	0.04592701
166	0x3d7c8ace	0.061655812
167	0xbc98a3fc	-0.018632881
168	0xbc8fb7c4	-0.017543681
169	0x3a878f40	0.0010342374
170	0xbd5ce1c8	-0.05392626
171	0x3d9cb2fb	0.07651325
172	0xbcc17b20	-0.02361828
173	0xbd79dbf7	-0.06100079
174	0x3ad7c140	0.0016460791
175	0xbc5602d8	-0.013062201
176	0xbd391a62	-0.045191176
177	0xbd77b3e2	-0.060474284
178	0xbd90e257	-0.07074421
179	0x3d4bc3b6	0.04974719
180	0x3cc03f30	0.02346763
181	0x3d893c4f	0.06700956
182	0xb9a9e000	-0.00032401085
183	0xbd8f9964	-0.07011679
184	0x3da38375	0.07984058
185	0xbd96dd45	-0.073664226
186	0x3d7e71a6	0.062120102
187	0x3c1aac08	0.0094404295
188	0x3d1a0866	0.037605666
189	0xbcbd640c	-0.023118995
190	0xbcb88aac	-0.022527061
191	0xbd852462	-0.0650108
192	0x3d5c2fee	0.053756647
193	0x3d219fa2	0.03945888
194	0xbda65e59	-0.08123464
195	0xbdba4640	-0.090954304
196	0xbcd70108	-0.026245609
197	0x3da387f9	0.07984919
198	0x3d56f12e	0.0524761
199	0xbd0721bc	-0.032991156
200	0xbc840f78	-0.016120657
201	0xbb7a1600	-0.0038160086
202	0x3c057ed0	0.00814791
203	0xbcfabea4	-0.030608483
204	0x3d44ba82	0.04802943
205	0xbdbc7561	-0.09202076
206	0xbd9d773a	-0.07688756
207	0xbda0fd7a	-0.07860847
208	0x3d97bdad	0.07409225
209	0xbd05ff8e	-0.03271442
210	0x3d82e369	0.06391031
211	0xbb8a9c40	-0.004230052
212	0xbd49d3b7	-0.049274173
213	0x3d64772e	0.05577772
214	0x3dc2ff75	0.09521381
215	0xbc8e9054	-0.017402805
216	0x3d5fd70a	0.054648437
217	0xbc2af398	-0.010434054
218	0x3c284e98	0.010272644
219	0xbc305898	-0.01076331
220	0xbb9b0ef0	-0.0047320053
221	0xbc5b6790	-0.01339139
222	0x3c2271f8	0.009914868
223	0x3d6a71b6	0.05723735
224	0xbd334d86	-0.043775104
225	0xbdb720e1	-0.08941818
226	0xbc413070	-0.011791334
227	0x3ce6120c	0.028084777
228	0x3b660260	0.003509663
229	0x3d2c491e	0.042061917
230	0xbd537ba4	-0.051631585
231	0x3c88d230	0.016701788
232	0xbce74ce0	-0.028234899
233	0x3c9a9a28	0.018872336
234	0x3cfafc9c	0.030638032
235	0xbdbe6681	-0.09296895
236	0x3d1f0226	0.03882041
237	0xbd8443b3	-0.06458225
238	0xbd201617	-0.039083567
239	0xbd8daaed	-0.06917367
240	0xbd8ac820	-0.06776452
241	0xbc583310	-0.013195768
242	0x3d34b7b2	0.044120498
243	0xbd1aee88	-0.037825137
244	0x3d53c0a2	0.05169738
245	0x3d769266	0.06019821
246	0xbd938a51	-0.07204116
247	0xbd861aa8	-0.06548053
248	0xbcf834d0	-0.03029862
249	0xbd35d6da	-0.04439435
250	0x3c54d998	0.0129913315
251	0x3d0b7daa	0.03405539
252	0xbd04be20	-0.03240788
253	0xbd3fb20a	-0.04680065
254	0x3d5154d6	0.051106296
255	0x3c9ead84	0.019369848

tpcnns.4.bias f4 [12]
0	0xbd8807db	-0.06642123
1	0x3d7556ee	0.059897356
2	0x3d86b171	0.06576813
3	0x3d9cef3f	0.0766282
4	0xbdae9b6a	-0.08525737
5	0x3d69ce2e	0.057081394
6	0x3b8ef650	0.004362859
7	0xbd325416	-0.04353722
8	0x3d74c6ce	0.059759907
9	0xbc2a17d8	-0.010381661
10	0xbbfbf1c0	-0.007688731
11	0xbc7e7030	-0.015529677

tpcnn_ouput.weight f4 [12, 12, 3, 3]
0	0x3cf66a20	0.030079901
1	0xbc0b6b80	-0.008509517
2	0xbc75078f	-0.014955415
3	0xb865fbea	-5.4832468e-05
4	0xbb83dfac	-0.0040244665
5	0x3c24d206	0.010059839
6	0xbc7adfc9	-0.015312144
7	0x3d0aa1c1	0.033845667
8	0x3ae27192	0.0017276278
9	0xbabb6ee2	-0.0014300013
10	0xb9ebcb99	-0.00044974385
11	0x3b9724a4	0.004612522
12	0xbb022211	-0.001985673
13	0x3b31f1c5	0.0027152163
14	0xbb97df93	-0.0046348064
15	0x3c3279d0	0.0108933
16	0x3c762af9	0.015024894
17	0x3c35ac32	0.011088418
18	0x3b6cb728	0.0036119912
19	0xbc88f641	-0.016718986
20	0xbc0b1596	-0.008489033
21	0x3c6da2d7	0.014504156
22	0x3c943beb	0.018094977
23	0x3c6cfb71	0.014464245
24	0xbbe1f81a	-0.006896031
25	0xbc87a6ab	-0.016558966
26	0xbba1de7d	-0.0049398527
27	0x3b357c14	0.0027692365
28	0x3a71fc2b	0.00092309964
29	0xbb1f0435	-0.0024263982
30	0xbabd8483	-0.0014459047
31	0x3b4c0ee3	0.0031136803
32	0x3a803b6b	0.0009783333
33	0x3c30b786	0.010785943
34	0xbafdf086	-0.001937405
35	0xbc0fea8c	-0.008783948
36	0x3b1c5a15	0.0023857404
37	0x3a6e17d4	0.000908253
38	0x3c558b27	0.013033665
39	0x3a7bb418	0.0009601726
40	0xbb54fa2c	-0.0032497747
41	0xbba8383c	-0.005133657
42	0xbb58e514	-0.0033095526
43	0x3c0201a6	0.007934963
44	0x3b24c9f9	0.00251448
45	0x3b107a53	0.0022045567
46	0x3a6bbfe6	0.00089931337
47	0x3c22092e	0.009889884
48	0x3c61d091	0.013782636
49	0x3b9e7083	0.00483519
50	0x3c445afd	0.011984584
51	0x3c107338	0.008816533
52	0x3c0116e9	0.007878997
53	0x3c177520	0.009244233
54	0x3c3b0bf2	0.011416422
55	0xbc4cf065	-0.012508486
56	0x3ccabcea	0.024748284
57	0x3c918836	0.017765146
58	0x3b3ed0eb	0.0029116224
59	0x3c3bd946	0.011465376
60	0xba8fae81	-0.001096204
61	0xbb7ee48f	-0.0038893556
62	0xbbdad4ab	-0.006678184
63	0xbc816f7f	-0.015800236
64	0x3c9bb82c	0.019008718
65	0x3b31cc58	0.0027129855
66	0x3bebe896	0.0071993573
67	0x3b86d23c	0.0041144174
68	0x3c4a3007	0.012340552
69	0x3c17bf4b	0.009261916
70	0xbc188eb9	-0.0093113715
71	0x3b8fb961	0.0043861126
72	0x3b825740	0.003977686
73	0x39ca94b8	0.00038639246
74	0x3ba46411	0.0050168117
75	0xbc616035	-0.013755848
76	0x3b4aa9bf	0.003092393
77	0xbb93d285	-0.00451118
78	0xbc027f74	-0.0079649575
79	0xbb71f24c	-0.0036918102
80	0xbc305198	-0.010761641
81	0xbb1155e6	-0.0022176444
82	0xbb3434a7	-0.0027497204
83	0xbb6f0bb1	-0.0036475474
84	0x3bc394df	0.0059686746
85	0x3c293827	0.010328329
86	0x3b714553	0.0036815002
87	0x3aeb3f34	0.0017947913
88	0xbb02639e	-0.0019895802
89	0x3b28e741	0.0025772604
90	0xbbb54589	-0.005531971
91	0x3c12bd01	0.008956195
92	0xbb7f6893	-0.0038972243
93	0x3b46c4e1	0.0030329751
94	0xba9ecad8	-0.0012114896
95	0x3b951043	0.0045490577
96	0x3c2a4cb1	0.010394261
97	0xbbb36b6c	-0.005475452
98	0x3b9dc2c9	0.00481448
99	0x3a4c36b5	0.00077901344
100	0x3b8823b2	0.004154646
101	0xbc00121d	-0.007816819
102	0xbc1ab1e0	-0.009441823
103	0x3c087e6f	0.008330925
104	0x3c2eeebb	0.010677035
105	0xbbfcd1e5	-0.007715451
106	0x3c2592d0	0.010105804
107	0x3b1a40ea	0.0023537227
108	0xbd29dd00	-0.041470528
109	0x3ca96161	0.020676317
110	0x3c35498f	0.011064901
111	0x3ce90242	0.02844346
112	0xbc19da07	-0.009390361
113	0x3c0eb9ae	0.008711262
114	0xbb6c4743	-0.0036053217
115	0xbc1dacc9	-0.009623715
116	0x3cbf4af1	0.023351165
117	0xbb17c2ba	-0.0023156838
118	0xbb337950	-0.002738554
119	0xbb23dc03	-0.0025002963
120	0xbc12514c	-0.0089305155
121	0xbb1349d1	-0.0022474418
122	0x395d3825	0.00021097118
123	0xbbd7169d	-0.006563975
124	0xbb3b0b65	-0.0028540727
125	0x3b573bf6	0.0032842136
126	0xbc943b00	-0.01809454
127	0x3c535a23	0.012899908
128	0xbc050fc6	-0.008121436
129	0x3b25570b	0.0025228884
130	0x3a488b38	0.000765014
131	0xbc151150	-0.009098366
132	0x390728f0	0.00012889854
133	0xbc00e04f	-0.007865979
134	0xbb801a3d	-0.003909378
135	0x3b68a3bc	0.0035497984
136	0xb6777932	-3.6876413e-06
137	0x3bd0c230	0.006370805
138	0xb9ba4615	-0.000355289
139	0x3b3ec4f5	0.0029109095
140	0x3b74f10f	0.0037375127
141	0x3b8a62e7	0.004223216
142	0xb9e1f81e	-0.00043100206
143	0x3a1fb382	0.00060921174
144	0x3c30aade	0.010782925
145	0xbb936297	-0.004497837
146	0x3bb8dffc	0.0056419354
147	0xb963cb43	-0.00021724128
148	0xbbd3ca5d	-0.0064633326
149	0x3b8247ac	0.003975829
150	0xbb921766	-0.0044583557
151	0x3c3dd4c1	0.011586369
152	0x3b5e77c1	0.003394589
153	0x3b760cb7	0.00375442
154	0xbb7ba7e6	-0.0038399636
155	0xba384b3b	-0.0007030253
156	0x3acbf046	0.0015559278
157	0x3a27c877	0.0006400416
158	0xbb13214c	-0.0022450266
159	0x379053f4	1.7205231e-05
160	0xbb0f2976	-0.002184478
161	0x3b8ee229	0.0043604565
162	0x3d24b6c7	0.040213373
163	0xbc8071a4	-0.015679188
164	0xbc21e7d9	-0.009881937
165	0xbc406b07	-0.011744267
166	0xbb0d71d5	-0.0021582742
167	0x3b32e337	0.0027296075
168	0xba8aaecc	-0.0010580658
169	0x3cd57abc	0.0260595
170	0xbd226122	-0.039643414
171	0x3bdd252b	0.0067488155
172	0xbb580cc8	-0.0032966603
173	0xbb746408	-0.0037291069
174	0x3b154bd1	0.0022780786
175	0xbc18e697	-0.009332321
176	0x3ae6fab8	0.0017622327
177	0x3ab59c48	0.001385578
178	0xbc3cab28	-0.011515416
179	0x3c1fe444	0.009759013
180	0xbb8b6aed	-0.00425469
181	0x3b0f30fd	0.0021849268
182	0xb868ec56	-5.5533215e-05
183	0x3bd7b502	0.006582857
184	0x3cbbf601	0.022944452
185	0x3b8f5f4f	0.0043753753
186	0x3c4e1f95	0.012580772
187	0x3be0ddcf	0.006862379
188	0x3c4d202c	0.012519877
189	0xbb2f2ed4	-0.0026730793
190	0xbb3d21ba	-0.0028859214
191	0x3b095309	0.0020954034
192	0xbbeac509	-0.0071646017
193	0xbb3afd80	-0.0028532445
194	0x3bae4ae3	0.005318986
195	0xbb029547	-0.0019925402
196	0xbad3c476	-0.0016156572
197	0x3a2c7cbe	0.00065798673
198	0xbaccd413	-0.0015627168
199	0x3b0cc939	0.0021482243
200	0x3bb05eaa	0.0053823786
201	0xba2c45dd	-0.000657169
202	0xbb5d150b	-0.0033734466
203	0x3c0f0da9	0.008731284
204	0x3bc174a5	0.0059037977
205	0xbb519ee7	-0.0031985582
206	0xbbec5c6d	-0.0072131664
207	0xbbdfe3a1	-0.0068325554
208	0x39981d7d	0.0002901367
209	0xbbbb59ad	-0.0057174773
210	0xbbb66fe3	-0.005567537
211	0x3c304315	0.010758181
212	0xbba6297c	-0.0050708633
213	0xbbea077e	-0.0071420064
214	0x3ba42a99	0.005009961
215	0xbbf575e8	-0.007490862
216	0x3a9553e2	0.0011392797
217	0x3b834159	0.004005593
218	0x3cf20844	0.029544957
219	0xba0fa293	-0.00054792425
220	0x3c9ff883	0.01952768
221	0xbca114fa	-0.019663323
222	0xbb3e4e8f	-0.0029038524
223	0xbc2f43fd	-0.010697362
224	0xbca42eef	-0.020041911
225	0x3ab54c59	0.0013831957
226	0xbb6c7dbd	-0.0036085688
227	0xbbdc9f8b	-0.006732886
228	0xb9e81499	-0.00044265835
229	0xb9fe90b4	-0.00048554468
230	0x3b8941ac	0.004188737
231	0xbb9b09bf	-0.0047313864
232	0xbc1c744a	-0.00954921
233	0xbc8fa71a	-0.017535735
234	0x3c234fc5	0.009967749
235	0x3bc283cb	0.005936121
236	0x3bfd42ac	0.007728895
237	0xba79a505	-0.0009523186
238	0xbc81ade7	-0.015829993
239	0xbc8b1b0c	-0.01698067
240	0xbc177112	-0.009243267
241	0x3c6a41d1	0.014297918
242	0xbb04f244	-0.0020286003
243	0xbb9512d7	-0.004549365
244	0xbb752e0b	-0.0037411477
245	0xba6975e2	-0.00089058105
246	0xbae65d7a	-0.0017575466
247	0xbadfcbb4	-0.0017074258
248	0x3bb2d83f	0.0054579074
249	0xbadd1bb3	-0.0016869217
250	0xbc0aff29	-0.0084836865
251	0xbbb63bc0	-0.005561322
252	0xbc0b1cdb	-0.008490766
253	0xbc0da273	-0.008644688
254	0xbbb2b81a	-0.0054540755
255	0xbba749f7	-0.005105253

tpcnn_ouput.bias f4 [12]
0	0x3a92f5b9	0.0011212147
1	0xbab29a7a	-0.001362636
2	0x3bd982ff	0.0066379304
3	0x3c029fd6	0.007972678
4	0xbe2426f2	-0.16030481
5	0xc03f9b17	-2.993841
6	0xc0461f30	-3.0956535
7	0xc041e09e	-3.0293345
8	0xc0433b48	-3.0504932
9	0xc0112796	-2.2680411
10	0x3d450f05	0.048110027
11	0xbbec1e8c	-0.00720579
